resources/features/train/0_5/Heavyweight.npy (npy, 81144 bytes, 1 tensors)

array f8 [779, 13]
0.0 0.0 0.0 0.0 0.0 0.0 0.0 1.0812260783213259e-13
0.0 0.0 0.0 0.0 0.0 202.96462627112456 33.753283022974955 -97.55223534394997
-144.59323662582253 -129.72874024885905 -83.02448273373753 -32.1024740865549 7.021743840518333 39.95114918843362 63.03500765156897 56.60942996124895
28.13920799142649 3.0975555754274424 278.45556018884855 141.74714706896907 21.59590630767292 -39.52706376624584 -69.63880676744037 -103.51652626697792
-127.7337098634785 -105.77257728597078 -40.802447608495974 14.700063720454153 17.079818133581107 -18.98418381689096 -40.991353045537885 242.7541365279568
73.58797284446237 -11.25841436732942 -42.05212814379227 -87.22798585275078 -109.51185870804437 -85.23403681655186 -59.36612974594034 -37.304424537379035
4.363908096399097 36.94048214249739 44.91161180249977 65.60466904375662 349.5382820839005 171.0933492537601 13.44566670380241 -60.7434157958493
-76.55558570884249 -81.82697016586305 -87.02832265673628 -75.65970364155808 -45.750373810142946 -18.500559179839527 -11.51374552540098 -17.89925588125416
-14.487229376700242 444.96760008994033 -26.361538786282175 -142.6233893280048 -48.57956661954286 -45.634573861442675 -100.6487255211351 -85.00774688802377
-78.30166433573818 -105.29363630470542 -55.22729205465761 -11.150829298797703 -53.553268364636075 -72.1867147036903 473.1935538372404 -13.178970644808334
-83.11080749781456 -27.055973606702416 -71.32539708867208 -134.64117013034246 -84.86634739400418 -59.75626645954776 -77.90429524567705 -3.559745904095365
-1.8584633631338647 -33.164721935065494 21.23829215844521 389.6779815304204 34.98477842157341 -105.39992035582006 -57.41899256507808 -33.32866350668691
-64.68454498967361 -81.48780887144687 -77.10564517428656 -50.97157457670602 -1.2160448090558127 10.372540045622262 -42.504503980044674 -70.77528017431678
329.4043541405712 -163.7569347413023 -144.68848651313206 -72.28600312742125 -78.75321670638029 -138.49267858860773 -66.1772971787269 5.253688655342698
-37.408213875077166 98.11664497676743 164.01840322974425 72.36782916165478 36.90611556661746 452.7405015820952 -13.04952004740654 -137.5176731038255
-30.259029640118573 -24.939730826018405 -104.88910768315742 -114.18510872346886 -65.60073366438982 -29.164118409586706 -22.543049175104212 -36.722351517197424
-26.54947563434928 26.145095765883127 417.51336979315306 -90.39522843535288 -19.3542278039217 -3.7019154128080807 -52.91845237171556 -143.87600320622187
-27.905527753031507 25.61089108126665 -121.41363788145424 -2.175595111630461 65.2052145018077 6.6690012557782765 58.92043058645698 439.624424501361
-90.27817015724372 -151.95368265225278 -55.208296630214036 -43.10287735320162 -141.8151400921927 -134.5529614838527 -54.37978701795585 -69.02067054491636
-41.19479600502583 -50.3693138387231 -79.21364841330984 5.58779920075937 317.17696570326893 -192.51720069070166 -130.46178772407006 -74.90987795735
-96.22698759799547 -214.28727327414026 -128.0250487915865 -39.04327790571591 -83.67659607492467 43.68245574464595 29.871844410151017 -11.620207496018706
107.50369234603014 346.906984667299 -115.83301298322547 -21.2327381560996 -40.2549872576899 -37.69770101500862 -113.13097646506766 -134.26171915490355
-101.73587566156031 -35.538990984096486 -12.838767938728218 -5.551081818491767 -12.081682720405912 -5.700878571606436 236.76443512566397 -140.21073045967927
-59.76183585952691 -153.48317075781821 -89.18182336222509 -160.8131995406581 -65.83680331015775 -59.122624406844224 -47.94712496990664 -8.846849124705546
-7.864032862588342 19.85017141946801 27.192245239036016 230.05054410667196 -187.4436344505336 -65.8355301019936 -63.59226924164699 -7.2517429729650065
-63.96420439821553 -88.4497617520438 -92.31484323294022 -45.277509442328586 -2.95722814586603 -24.54690242005828 -59.410683010638806 -44.593188677155354
95.27077999276793 -295.6485108198195 -116.65868516428546 -149.46035908189262 -78.27106347419016 -144.88123591572815 -71.44735289207446 -41.4305147226067
-62.0729792206367 17.157070691069592 91.25981745800979 89.63724418001974 13.67837158240443 63.705240742034256 -246.98248498470178 -107.88854485870368
-95.88521015556944 -18.448096160938427 -113.37320343706165 -104.83696089748848 -144.95435079941092 -66.06850239005387 18.06498162168694 7.189094038393074
-39.96560911303241 -44.48787276012925 -48.68814483311193 -281.226701215184 -81.42475506818155 -83.63786831281865 -108.98246537426897 -160.89558867486318
-88.71316625750822 -26.93910653414709 26.557110379609263 -65.87415132535116 -22.6456835195067 38.76534217881494 86.88370047010864 -53.61467634833627
-237.202825725468 -58.72739892810989 -56.97302545314867 -11.923556475212411 -116.93262277405108 -150.70152500429896 -125.59724353390646 -42.54089221746922
00000000: 0000 0000 0000 0000 0000 0000 0000 0000
00000010: 0000 0000 0000 0000 0000 0000 0000 0000
00000020: 0000 0000 0000 0000 0000 0000 0000 0000
00000030: 0000 0000 0000 0000 ff54 4413 0e6f 3e3d
00000040: 0000 0000 0000 0000 0000 0000 0000 0000
00000050: 0000 0000 0000 0000 0000 0000 0000 0000
00000060: 0000 0000 0000 0000 f5ea e937 de5e 6940
00000070: 9c27 fe93 6be0 4040 787d e9d2 5763 58c0
00000080: 4f56 60cb fb12 62c0 1d04 12d7 5137 60c0
00000090: 0a2e 0720 91c1 54c0 6b38 f1de 1d0d 40c0
000000a0: a8a9 6f04 4416 1c40 3cf8 b041 bff9 4340
000000b0: 9b4c 7721 7b84 4f40 2662 0ccd 014e 4c40
000000c0: c484 8a22 a323 3c40 d006 b037 cbc7 0840
000000d0: 6d07 7bf9 4967 7140 c850 f8a0 e8b7 6140
000000e0: 70ef d650 8d98 3540 5b77 53d3 76c3 43c0
000000f0: aca7 c735 e268 51c0 7d0c 30c4 0ee1 59c0
00000100: 2319 371a f5ee 5fc0 2038 00e8 7171 5ac0
00000110: 2f9f 6d9a b666 44c0 f0ee 80c0 6e66 2d40
00000120: ce5b 11f6 6e14 3140 93cc 7a78 f3fb 32c0
00000130: 07b0 16a8 e47e 44c0 6489 ede2 2158 6e40
00000140: ba79 da58 a165 5240 27fe 50e3 4e84 26c0
00000150: fd64 9022 ac06 45c0 fa60 f951 97ce 55c0
00000160: 4cce 064b c260 5bc0 9d49 8e75 fa4e 55c0
00000170: 0a74 ea56 ddae 4dc0 4a12 1c62 f7a6 42c0
00000180: 8c22 f352 a474 1140 c83f 06b8 6178 4240
00000190: 2b31 0fb2 af74 4640 a6f5 c9e5 b266 5040
000001a0: 02a6 accd 9cd8 7540 2e00 93b7 fc62 6540
000001b0: b47e 1b6d 2ee4 2a40 5440 b13f 285f 4ec0
000001c0: 9f66 5cb7 8e23 53c0 9149 4614 ed74 54c0
000001d0: c31a d509 d0c1 55c0 d262 9f95 38ea 52c0
000001e0: 602b bf3f 0ce0 46c0 941f 7ba5 2480 32c0
000001f0: 8920 4ca7 0907 27c0 e7b8 28a2 35e6 31c0
00000200: f027 fd20 76f9 2cc0 685e 3b4a 7bcf 7b40
00000210: 4651 4fce 8d5c 3ac0 980e 2dce f2d3 61c0
00000220: 1a65 2e3d 2f4a 48c0 78e5 5eb7 39d1 46c0
00000230: c656 0cb8 8429 59c0 4ead cdec 7e40 55c0
00000240: 5d17 ee77 4e93 53c0 3268 edef ca52 5ac0
00000250: 92b2 f2e7 179d 4bc0 c03a 737f 394d 26c0
00000260: fd02 6e7f d1c6 4ac0 0f82 3a22 f30b 52c0
00000270: 688f e8cb 1893 7d40 aaca 540a a25b 2ac0
00000280: f8d0 5478 17c7 54c0 de39 4a49 540e 3bc0
00000290: da83 4f4e d3d4 51c0 c69f 3877 84d4 60c0
000002a0: 420e 573c 7237 55c0 e068 df56 cde0 4dc0
000002b0: 1e87 2af9 df79 53c0 c046 810f 5c7a 0cc0
000002c0: 0096 5714 44bc fdbf 2305 be9b 1595 40c0
000002d0: 596a 03b7 003d 3540 2a47 2903 d95a 7840
000002e0: 6e3b 2538 0d7e 4140 1e50 8c4b 9859 5ac0
000002f0: 8523 628c a1b5 4cc0 f24d 52a5 11aa 40c0
00000300: 7cd2 c995 cf2b 50c0 0864 b342 385f 54c0
00000310: a022 fae3 c246 53c0 e849 448e 5c7c 49c0
00000320: 30d8 d566 eb74 f3bf c2cb a091 bdbe 2440
00000330: 327f 1f96 9340 45c0 607b bc30 9eb1 51c0
00000340: 161c 0c3c 7896 7440 30e3 34cf 3878 64c0
00000350: 7534 de14 0816 62c0 feb4 0fe0 4d12 52c0
00000360: 112d d8b3 34b0 53c0 4f30 e305 c44f 61c0
00000370: 8713 44d6 588b 50c0 9e40 78f5 c603 1540
00000380: 6c9d 2d5a 40b4 42c0 5d1d 7e1c 7787 5840
00000390: 8ebc 5ec2 9680 6440 a2f4 5283 8a17 5240
000003a0: 5e82 4a98 fb73 4240 c3db 2f18 d94b 7c40
000003b0: 0537 10b1 5a19 2ac0 615e 2fc7 9030 61c0
000003c0: 0101 39c4 4f42 3ec0 c8ca 0c33 92f0 38c0
000003d0: 2472 e923 e738 5ac0 3260 42d2 d88b 5cc0
000003e0: 468a 9c6b 7266 50c0 b0d8 01aa 032a 3dc0
000003f0: 3f31 4f45 058b 36c0 1a4a b703 765c 42c0
00000400: a17a 676f aa8c 3ac0 9041 01ff 2425 3a40
00000410: 8c85 3ec3 3618 7a40 8d12 356c 4b99 56c0
00000420: 772d 61ac ae5a 33c0 688d f4d3 859d 0dc0
00000430: dab9 e9d8 8f75 4ac0 403d e037 08fc 61c0
00000440: 04e4 b4aa d0e7 3bc0 5675 9f5b 639c 3940
00000450: e44e 050b 795a 5ec0 8852 ee68 9e67 01c0
00000460: 757b 013c 224d 5040 d833 4aaa 0ead 1a40
00000470: 1189 61ab d075 4d40 aac2 8ba4 fd79 7b40
00000480: 7005 348a cd91 56c0 0646 7b91 84fe 62c0
00000490: 7251 c776 a99a 4bc0 00c0 c915 2b8d 45c0
000004a0: 09b4 aca0 15ba 61c0 0a23 48dc b1d1 60c0
000004b0: 6ac8 6adc 9c30 4bc0 009a 8caa 5241 51c0
000004c0: 1b7d 5313 ef98 44c0 52a3 05ad 452f 49c0
000004d0: 8400 656a accd 53c0 7881 9f08 e859 1640
000004e0: dc40 fdd9 d4d2 7340 0881 76e8 8c10 68c0
000004f0: 6892 0cf7 c64e 60c0 da8a c170 3bba 52c0
00000500: 3e7f fdf6 860e 58c0 50ae b857 31c9 6ac0
00000510: 6395 1f33 cd00 60c0 38d8 6221 8a85 43c0
00000520: d299 9f59 4deb 54c0 601c b8b5 5ad7 4540
00000530: 8dcc fc31 31df 3d40 cf44 40d6 8b3d 27c0
00000540: 7a5c d27e 3ce0 5a40 5dc0 5a02 83ae 7540
00000550: 3206 b015 50f5 5cc0 a8fa 50ba 943b 35c0
00000560: 6156 266c a320 44c0 8cec 5044 4ed9 42c0
00000570: b980 1ceb 6148 5cc0 8561 d900 60c8 60c0
00000580: bb14 3b96 186f 59c0 42c4 14a8 fdc4 41c0
00000590: c48a c3fd 72ad 29c0 905e cfca 4e34 16c0
000005a0: 5a95 4951 d229 28c0 3e11 be1c b3cd 16c0
000005b0: 7e14 a740 7698 6d40 fe12 ce4d be86 61c0
000005c0: 48cb 62d6 83e1 4dc0 cf66 8522 762f 63c0
000005d0: f499 74fe a24b 56c0 f607 0bbb 051a 64c0
000005e0: f993 782f 8e75 50c0 2e8b 1428 b28f 4dc0
000005f0: ac7c 1964 3bf9 47c0 5a83 5e35 96b1 21c0
00000600: dcf1 dd07 c574 1fc0 e79b 8ad5 a4d9 3340
00000610: ad78 e6fb 3631 3b40 2ca5 ac0e 9ec1 6c40
00000620: 770d e040 326e 67c0 b5b8 3f53 7975 50c0
00000630: 78a6 7f7a cfcb 4fc0 b287 efe8 c801 1dc0
00000640: 5e7f ba0c 6bfb 4fc0 4401 84e5 c81c 56c0
00000650: 1736 3b64 2614 57c0 f590 ed6d 85a3 46c0
00000660: 4a71 ea3a 67a8 07c0 ea40 08cc 018c 38c0
00000670: b6db c942 91b4 4dc0 b05e 489b ed4b 46c0
00000680: 5c56 9b75 54d1 5740 a1a3 e14c 607a 72c0
00000690: dabd d1e5 272a 5dc0 a724 f842 bbae 62c0
000006a0: 5c32 9d1a 5991 53c0 9ec3 a915 331c 62c0
000006b0: c64e 066e a1dc 51c0 6a05 3f1b 1bb7 44c0
000006c0: 0af6 1262 5709 4fc0 d44d e9c8 3528 3140
000006d0: 3e45 67d9 a0d0 5640 1230 d09b c868 5640
000006e0: f4ec 2185 535b 2b40 056c 2154 45da 4f40
000006f0: 5ec3 5984 70df 6ec0 524a 41eb ddf8 5ac0
00000700: 8010 7f48 a7f8 57c0 96b1 146e b672 32c0
00000710: d03b ab90 e257 5cc0 9baf 70c4 9035 5ac0
00000720: 340c b00a 8a1e 62c0 ab3e d957 6284 50c0
00000730: 88fc b3a2 a210 3240 3a11 1bde a1c1 1c40
00000740: cd98 5414 99fb 43c0 a4ae 569d 723e 46c0
00000750: 4590 4021 1558 48c0 dc12 7491 a093 71c0
00000760: 9aa9 e12f 2f5b 54c0 7ead 9dd5 d2e8 54c0
00000770: 02fc 72b6 e03e 5bc0 92a6 94a9 a81c 64c0
00000780: f226 1684 a42d 56c0 259f 2b49 69f0 3ac0
00000790: 16af 2cc9 9e8e 3a40 da88 6618 f277 50c0
000007a0: f3d8 df83 4ba5 36c0 3921 86bb f661 4340
000007b0: e4a4 6a8c 8eb8 5540 4fdd eeb6 adce 4ac0
000007c0: 8535 608c 7da6 6dc0 50b0 7768 1b5d 4dc0
000007d0: 7db9 1919 8c7c 4cc0 ba17 f264 dcd8 27c0
000007e0: 7883 6e17 b03b 5dc0 4ad9 90e4 72d6 62c0
000007f0: 0c78 f13c 3966 5fc0 7a58 c8f4 3b45 45c0
