resources/features/train/1_5/Heavyweight.npy (npy, 27064 bytes, 1 tensors)

array f8 [259, 13]
0	0x0000000000000000	0.0
1	0x0000000000000000	0.0
2	0x0000000000000000	0.0
3	0x0000000000000000	0.0
4	0x0000000000000000	0.0
5	0x0000000000000000	0.0
6	0x0000000000000000	0.0
7	0x3d3e6f0e134454ff	1.0812260783213259e-13
8	0x0000000000000000	0.0
9	0x0000000000000000	0.0
10	0x0000000000000000	0.0
11	0x0000000000000000	0.0
12	0x0000000000000000	0.0
13	0x406ad7401e9c05ec	214.72657709573048
14	0x404ee4103eb17891	61.78174575486731
15	0xc02e66a67d67de5b	-15.20048896687438
16	0xc047df086f1b5f96	-47.742444885602865
17	0xc05817fdf3f39a9b	-96.37487505711981
18	0xc05dd0cc5d884816	-119.26247347172497
19	0xc056d7a453d44f02	-91.36940475209488
20	0xc04d3968d0b956c2	-58.448511209962376
21	0xc03faba62f99b604	-31.67050454619131
22	0x401e9c4b5a77d4b4	7.652631200374504
23	0x404194748594a93d	35.15980596312372
24	0x40451c074a188790	42.21897245595676
25	0x405082ac34ad13b6	66.04176060583163
26	0x407bf4d96c16038c	447.3030815944592
27	0xc03754d62f8c2c83	-23.331393214914453
28	0xc05aa4773c3a0213	-106.56977754273275
29	0xc04919b318d9b24b	-50.20077810888014
30	0xc057402470010a1a	-93.00222396947393
31	0xc0633b1ee039a63b	-153.8475190282787
32	0xc05886ff69a4877c	-98.10933915202435
33	0xc0510e1c1b10bd59	-68.22046543726664
34	0xc05517b147eae046	-84.37019536912075
35	0xc02502415b83ce08	-10.504404887999968
36	0xbfe9903924ed4200	-0.7988553734995207
37	0xc044a3c98c241b47	-41.279588239317086
38	0xc00044edd59237ac	-2.033656757855132
39	0x407c75740b408875	455.34083104332177
40	0x4025ed864173b25e	10.963914914487017
41	0xc05f1bd80caf102e	-124.43506161781326
42	0xc037f97094dd2e4f	-23.974374107360116
43	0xc001c08d7c264c22	-2.2190198611438214
44	0xc05388042b27a7fe	-78.12525442955663
45	0xc059bdb84fb18b60	-102.96437446916889
46	0xc04df0ba1f360dbb	-59.88067999018991
47	0xc0355ee5e5e6ea83	-21.3706954659233
48	0xc037b23e44276ba0	-23.696262607216
49	0xc0469c28ef432610	-45.219999225413744
50	0xc03da8107a0ef190	-29.65650141587099
51	0x4039d9b64a73d9dc	25.850437787326754
52	0x40768f79d10c2798	360.9672403788368
53	0xc05d9d188bfcf4e3	-118.45462321951668
54	0xc0499a78a7fbc3d2	-51.20680713456353
55	0x401b8f728821e949	6.890085341520099
56	0xc0416e5ba4a2070c	-34.86217172538281
57	0xc0657c8a3860297f	-171.89187258512172
58	0xc05aeb2df868ad58	-107.67468080732704
59	0xc04104528f08c9be	-34.03376949242691
60	0xc05490b6e2d1b3fa	-82.26116247633755
61	0x404420fbb71029cb	40.257681734935964
62	0x403ec2bb7ff20a09	30.760673519698717
63	0xc024ac2f082a0fa5	-10.336296324858106
64	0x4058daa7f2b0911f	99.41650073283061
65	0x406d056a447dfa34	232.16922211270287
66	0xc06559a48703a75b	-170.80133391107196
67	0xc044a82d3b567bde	-41.31388036463589
68	0xc0450c9487ae136e	-42.098282775876996
69	0x40287078e9d6a32d	12.219672496271949
70	0xc050516fc69013f8	-65.27244724340551
71	0xc054eba3ab05d61f	-83.68186450548136
72	0xc054f41f60b86ff0	-83.81441514979792
73	0xc040f06f8df820c0	-33.87840437522527
74	0x4026cab4df0b3035	11.395911188236008
75	0xc037bbb7b99516d1	-23.73327216997024
76	0xc050636c66b71951	-65.5534912860942
77	0xc0504037054248aa	-65.00335818741829
78	0xc0348ad84fe544f0	-20.542363160585353
79	0xc06dde07bf7c4d0a	-238.93844579961325
80	0xc04721da067a7619	-46.26446610431248
81	0xc04bc6d7adbcc4ed	-55.553456990406495
82	0xc0566ea3cdbe43da	-89.7287477834756
83	0xc0629a5ee90f13d4	-148.8240857405168
84	0xc0521ed1a14f1d51	-72.48154480672862
85	0x3fefb286bd7d7e80	0.9905427647572225
86	0x4049c863e77c43fd	51.56554883544593
87	0xc049b81eaa8c76c1	-51.438435858331566
88	0xc03e0068cf1f4c27	-30.00159925951098
89	0x4042669254bda22b	36.80134066829154
90	0x4055b34cf69a9b10	86.80157246683325
91	0xc04b1e1d9f6e05df	-54.235279015276085
92	0xc0734312d46d8126	-308.1920971181411
93	0xc03df5df4d7a0831	-29.960438577931374
94	0xc04b85e74c6acad7	-55.04612117018194
95	0xc00ee7f1ce1462bc	-3.863254175183412
96	0xc062691cf5b92265	-147.28478513869337
97	0xc05029551b6c7aae	-64.64581952661203
98	0xc04d839ea8fa71ab	-59.02827942112648
99	0xc0452fb10c7cbf4a	-42.37259059992955
100	0x4043e03ac56e3cfe	39.75179355509498
101	0xc0222b2c64616b08	-9.084323059932572
102	0xc057a961edcc1f9b	-94.64660210546428
103	0xc0099013a095fc10	-3.195349936082046
104	0xc059c6ac1461cd44	-103.10425290633162
105	0xc069930c063b35af	-204.5952178150596
106	0xc0584fe6504a66da	-97.24843222871587
107	0xc036f577681292f1	-22.958853249106088
108	0x404bfe0d70853172	55.984785141978946
109	0xc055dfa0b8c48463	-87.4941846770394
110	0xc04aa5e04caafec6	-53.295907577031855
111	0xc053ed75e8f4184a	-79.71032165372267
112	0xc04ee0065c35ea22	-61.75019409782932
113	0xc021e9df45952b11	-8.95678155370618
114	0x4035e6a0a4bd481f	21.90088872548233
115	0xc04067a3ec2744aa	-32.8096900169124
116	0xc022021bb856ed57	-9.00411773739931
117	0xc072844e78e12af9	-296.2691582484836
118	0xc068d3e6e9a1d4fc	-198.6219375763684
119	0xc067bf52bc22da8c	-189.97884947593082
120	0xc0513a1e3f96c584	-68.90809621547493
121	0xc032216b3cc6fa1c	-18.130542563036315
122	0xc0704beb08ff9707	-260.7448816284163
123	0xc063819f162afcfc	-156.05066975017678
124	0xc0540e0d431fad3e	-80.2195594605773
125	0xc0440043fd62bd74	-40.00207488366405
126	0xc044f3abe769ebfc	-41.90368359252895
127	0xc0243945f339b3bb	-10.111861801904402
128	0xc04700f1ccc4d9be	-46.007379146688876
129	0x40232ef7d37b4ba5	9.591734513092726
130	0xc05415db6ed526f1	-80.34151812377583
131	0xc055812064610642	-86.01760205721897
132	0xc06431073969e0be	-161.53213186911847
133	0xc03c385c6a5e4e36	-28.22016014864331
134	0xc039d5578327e96a	-25.833366582149587
135	0xc046dfbc1a96ac74	-45.74792797429191
136	0xc0501111d1fb7eee	-64.26671266136302
137	0xc04f0462e93dcdc4	-62.03426852720034
138	0xc01268bff2a0d2cf	-4.602294722619901
139	0xc04140a81b169517	-34.50513018229156
140	0xc0523de0d5488380	-72.96684772569097
141	0xc0593e56599dc436	-100.9740203896225
142	0xc050ccfc9ea54f1f	-67.20291868346656
143	0xc049a01bf0376fb1	-51.2508526106534
144	0x405c8b8da0904da6	114.18051923839684
145	0xc031570228671a5c	-17.339876675769446
146	0x403bf8f3a5532d0a	27.97246773987448
147	0xc0440259b219a520	-40.01836229564856
148	0xc064cccebecfe958	-166.4002374707004
149	0xc05227b457b0d205	-72.6203822352182
150	0xc0212834dd83a7e7	-8.578528330155633
151	0x3fdc25eefa711ba4	0.43981527764520423
152	0xc036efa7dedb81c8	-22.936155251112524
153	0xc0482fd2ad423e46	-48.37361684546026
154	0xc0513ab48237af4e	-68.91726737440078
155	0x402c28fe1b4a835f	14.080063679548116
156	0xc077712a761208f4	-375.07286650700485
157	0x40528fbc0a5bbc48	74.24585207899611
158	0x4030dae724f34d8e	16.85508948268903
159	0xc043e7b2b1234b5c	-39.81014074538572
160	0x405affc542b0b84e	107.99641482599074
161	0xc05ab6929b7aa896	-106.85269820192693
162	0xc04c420786b28924	-56.51585468022884
163	0x4038940042a5043c	24.578128972327463
164	0xc04ce1e42462104d	-57.76477484501138
165	0x4047eb34e45daef1	47.837551637405234
166	0x4026f5a566079ac3	11.479777515819825
167	0xc045bb6169b99518	-43.463910308472066
168	0x40408404e490ab3b	33.03139931739721
169	0x4044f64c6e4eb61b	41.92420748561218
170	0xc05288314d4e4ec0	-74.12800915381649
171	0xc05ec6118273f747	-123.09481870007322
172	0xc02e9dfa1c5b7756	-15.308548818745901
173	0x403ba1630175c82e	27.63041695714508
174	0xc055798dc0c543c4	-85.89927691711551
175	0xc0524c18ca97afee	-73.18901314557272
176	0xc051e1f545c317c9	-71.53059524585764
177	0xc0181cdf2e771c16	-6.028195119876747
178	0xc050ae806032719e	-66.72658543516306
179	0xc0525695caf39952	-73.35289262570339
180	0xc05cfc1a27a67ac3	-115.93909636743324
181	0xc05017d647ac2aa9	-64.3724536114993
182	0xc05651afb08d4bc4	-89.27634824560579
183	0xc062ffd311256e1b	-151.99451501188818
184	0xc0353d3ebcd07be8	-21.23923854913656
185	0x4051da01d64325a9	71.4063621192678
186	0xc06c8b850e152954	-228.35999206669896
187	0xc0553af30ba109ca	-84.92108431555167
188	0xc0519d179d089fb6	-70.45456624834227
189	0xc0564c7293398b90	-89.19449310893674
190	0xc051191a5cdcc00f	-68.39223405416145
191	0x400e844f1ef10180	3.8146040360736038
192	0x4035e3ebce88b560	21.89031687581644
193	0xc05860cd8b4c4eb0	-97.51254541828052
194	0xc031bd3610110196	-17.739106182243255
195	0x405a89c1e7722c7c	106.15245996618063
196	0xc070b38ebeae060a	-267.2223498151585
197	0xc068dcde43a48f34	-198.90213186398034
198	0xc04cb3e4778bb760	-57.40540975877843
199	0x40493123fc7fb47a	50.38391071544261
200	0xc036751609f55a23	-22.457367536926665
201	0xc026532e9eb583ca	-11.162465057046479
202	0xc04364ce51ee0b4a	-38.787546387894125
203	0xc0460ba9a747bc88	-44.09111491205937
204	0xc04e3251c634daf8	-60.393120551880145
205	0xc054f69a5b176f69	-83.85317113197893
206	0xc0590bb25e55fe72	-100.18276174924702
207	0x4043323edf3ed418	38.392543702772116
208	0x405dac0a70f36b8c	118.688137281146
209	0xc06df84075096b67	-239.75786830749277
210	0xc062c11ebc0051aa	-150.03500175535493
211	0xc05e548a376ad110	-121.32093606406511
212	0xc031187ce289fed9	-17.09565559262305
213	0x404bc66634e9abc8	55.549994100663355
214	0xc041b3777c2518ff	-35.402083891023715
215	0xc0598fd8067c2e2e	-102.24756013991347
216	0x4016e35a171f7a64	5.72202335481288
217	0xc04c6e2f7897492c	-56.860823701734574
218	0x40441f84a2728c5e	40.24623518555812
219	0xc02b80980ba86198	-13.75116001539645
220	0xc04a668a70d1a7f4	-52.801099874850394
221	0x404a3d8af8b24574	52.4808035726991
222	0xc063143a612e7447	-152.63212641785705
223	0xc06315dfa2cb03ea	-152.68354930545257
224	0xc03ebcfabbcb54e3	-30.738200890676023
225	0xc056be2bfc4997d2	-90.97143466173955
226	0xc059b990b66ed882	-102.89945755791453
227	0xc061bfcb6f055694	-141.99358321230523
228	0xc0473768a21e4a2f	-46.432880654134685
229	0xc039ae68c3e87ce2	-25.68128609109852
230	0x4042f5610a266600	37.917023915051686
231	0x4049f08d91d7b724	51.87932036431292
232	0xc058dbf31399e18f	-99.43671121623468
233	0xc0131cb859ea2939	-4.778046994130187
234	0xc0715e0b41441f7d	-277.8777477894835
235	0xc04dfa0f5bb7eb91	-59.95359369736173
236	0x404cabeacc530a5c	57.34310297064505
237	0xc03a3d3f33a604d8	-26.239245632202113
238	0xc049e9434d939e5f	-51.822366425589955
239	0x4054231431ba509c	80.54810755915463
240	0xc04c6be2276948ca	-56.84283917084538
241	0xc0645e427b8c86be	-162.94561555334616
242	0xc03b1454c78235ac	-27.07941862992236
243	0xc034d4c8b7c9bcd4	-20.83118771243319
244	0xc03d5c8cb1969036	-29.36152181554663
245	0xc046f4d5284bf522	-45.9127550478827
246	0xc02fd093211b0dc2	-15.907372507622203
247	0x404776d270006a2e	46.92829704303982
248	0xc06a183ea307ff24	-208.7576460987267
249	0x3fd4cb0dbbb862c0	0.3248934109883912
250	0x3ff4a6b7d7197490	1.2907026674577402
251	0xc069ac3452aadaa4	-205.38138707513747
252	0xc054506caf8f2fd0	-81.25663365347941
253	0xc05503720ce68042	-84.05383608350624
254	0x40511949724069a4	68.39510780611323
255	0xc009523da68bf91b	-3.165156651636733
