resources/features/train/1_0/Heavyweight.npy (npy, 40584 bytes, 1 tensors)

array f8 [389, 13]
0	0x0000000000000000	0.0
1	0x0000000000000000	0.0
2	0x0000000000000000	0.0
3	0x0000000000000000	0.0
4	0x0000000000000000	0.0
5	0x0000000000000000	0.0
6	0x0000000000000000	0.0
7	0x3d3e6f0e134454ff	1.0812260783213259e-13
8	0x0000000000000000	0.0
9	0x0000000000000000	0.0
10	0x0000000000000000	0.0
11	0x0000000000000000	0.0
12	0x0000000000000000	0.0
13	0x4070a5dfff851fdc	266.3671870422529
14	0x406105ea1e531437	136.18482891298638
15	0x4034ee5d8c443cec	20.931114927920973
16	0xc0435f7f70789781	-38.74607664001724
17	0xc05124732073ee78	-68.56952678033292
18	0xc059498b67040587	-101.1491334475778
19	0xc05f0cc87e11c214	-124.1997370885295
20	0xc059e64b32ab0b03	-103.59833971694393
21	0xc04515464cc55890	-42.166207882271124
22	0x4025c021add38ea6	10.875256950449806
23	0x402c4f1d89ea3b60	14.15452223762776
24	0xc032f58e8f9b2918	-18.959206557637202
25	0xc043790447028121	-38.945443035338265
26	0x4074831342d47632	328.1922024058614
27	0x406230e9769f4a00	145.52849894629617
28	0xc023e067cf126edd	-9.938291998863344
29	0xc0532e604be097a0	-76.7246274655613
30	0xc05590929eefe493	-86.25894902636564
31	0xc0561615ab56ccd0	-88.34507258869712
32	0xc056eee5735fa0fe	-91.73275455797918
33	0xc05421c5631616b9	-80.52767254979234
34	0xc04aa65b4f24969f	-53.299661534181034
35	0xc03a5aa2d5530fb8	-26.3540471389567
36	0xc028f20b6a0212da	-12.47274333262742
37	0xc02354da93857dfd	-9.665730104489734
38	0xc0146b6d4a2faa69	-5.104909094962388
39	0x407c3566be72a270	451.337583968917
40	0xc03508f9aa8809d9	-21.0350596029401
41	0xc05912685a6fb8f0	-100.28761921797172
42	0xc04702509820f1aa	-46.01808454140276
43	0xc05603075e6a4bf2	-88.04732475643667
44	0xc062cebbaeebff37	-150.46041055768157
45	0xc057da77e7db3076	-95.41356846242147
46	0xc050318cd1bb430f	-64.77421992575931
47	0xc0550d743724118c	-84.2102182247383
48	0xc02084ff27728943	-8.259759171229808
49	0x3ff2faab95b8e8a0	1.1861987923171355
50	0xc044979c32a89cda	-41.184454281168385
51	0x4003606445e886a4	2.422066255720738
52	0x4076406aec11e407	356.02610404003684
53	0xc05da272bc9e9632	-118.53825297820075
54	0xc05ce34871e1d66a	-115.55129668287705
55	0xc042a98ac4e7c6d2	-37.32454739873141
56	0xc04be8b0ec7edf16	-55.81789928622145
57	0xc05f5a0ed4b89abe	-125.40715520885257
58	0xc04e9fb0ebbec598	-61.24758669676811
59	0x401ae826e0f420aa	6.726710810566297
60	0xc038cca079a46f18	-24.799323656697283
61	0x405517ce77aa88ee	84.3719767728214
62	0x40619c8cfb555fa1	140.89220968889734
63	0x4055112825fb0d56	84.26807546154791
64	0x404ac9967bc64f11	53.57490489180612
65	0x40798c1523ec59d6	408.75516121220187
66	0xc04e9ffff8215b6c	-61.2499990618588
67	0x402ae56c309aa1f4	13.448091048122457
68	0x401f4cf1509a0550	7.825139293099099
69	0xc04de982127f2c8e	-59.82428199014349
70	0xc0609f1c20ee4d24	-132.97218367140988
71	0xc0323635b652f710	-18.211757083182476
72	0x40336707450a889d	19.402454676696482
73	0xc05efb687d3bdc5e	-123.92825251432211
74	0xc01b65fe7eaff6f8	-6.849603633394274
75	0x404d4395741f58da	58.52799846201533
76	0x4023abcec03cce94	9.835561759398196
77	0x40505e6a2874117c	65.47522937140269
78	0x4076273906849480	354.4514222315702
79	0xc061335593a66c21	-137.6041963816106
80	0xc0511a5aac62c726	-68.41178426405222
81	0xc02592a0f4812fc9	-10.78638423993097
82	0xc0483f14d179bede	-48.49282282299622
83	0xc0660238bbff78c7	-176.06942558190187
84	0xc05af93b53a10c1b	-107.89424601294779
85	0xc040864d969acfb2	-33.04924280699869
86	0xc054b1d40594d666	-82.77856578383361
87	0x4043cfd5a36ede21	39.62370722688161
88	0x40428e25b6d6a3e4	37.110525946430954
89	0xc017209e128c442c	-5.781852998553443
90	0x405851735ebfa34a	97.27266663279184
91	0x4070b457f0822849	267.2714696010849
92	0xc0607525474d2f6a	-131.6608006007694
93	0xc047df6f1be2bf4a	-47.7455782754101
94	0xc0611582adfc393a	-136.67220210325632
95	0xc047875649855770	-47.057320776088886
96	0xc05f5a66bc717355	-125.4125205142894
97	0xc04b0a1b3c5a0f53	-54.07895616910414
98	0xc04cd038edbc0545	-57.62673732453053
99	0xc04e3d232ec62671	-60.477636191132554
100	0xc0343e47bc2b2216	-20.243282089739374
101	0x4008ef9a7af34a50	3.116993866490965
102	0x40451c44171171e2	42.22082794524955
103	0x404e573bc0fa8072	60.68151104194193
104	0x406cca3f515421a6	230.32022921020433
105	0xc0654205227704e4	-170.06312678571624
106	0xbff11db30d39030c	-1.069750835086043
107	0xc052a2de5a5b5229	-74.54482134740887
108	0xc03c5905e11bb7f5	-28.347745961444122
109	0xc057099fac0fd26d	-92.15037061257472
110	0xc0274b6c6037c2cd	-11.647311217123752
111	0xbfeb18bb41f93f80	-0.8467689789340369
112	0xc048eebc7991b0ba	-49.865126796853886
113	0x4032d41aa28d6abb	18.82853141739427
114	0x4054e8d0d87979f4	83.63774692404678
115	0x40583976f4037fa2	96.8978853258291
116	0x4035f8471cc1a028	21.969835088035467
117	0xc0423b0ad1a3f5f9	-36.46126766687298
118	0xc06f9d5fc3a9978b	-252.917939978823
119	0xc04e782e8a768df2	-60.93892031468194
120	0xc04fc5cfc9542839	-63.54540363892779
121	0xc05b198a18d02d66	-108.39905376748865
122	0xc06446f82fa61c18	-162.21779615824994
123	0xc052f0e58c72b154	-75.76401053619821
124	0xc008fc46ab94361a	-3.1231816677670965
125	0x404a0c2b72606638	52.0950758906078
126	0xc048cd0409c958a4	-49.60168573695526
127	0xc03c6cd26a7d3d47	-28.425085692955033
128	0x403fd8b7eb13c492	31.84655637009252
129	0x40558a3abb03e20d	86.15983462695313
130	0x3ffa393b953e9fb8	1.6389728383892201
131	0xc0746c77dc711c96	-326.7792629640984
132	0xc0372c6069b99698	-23.173346145448335
133	0xc04be7e5bd86c268	-55.811698618698586
134	0x404d7edc4679a086	58.991097268474775
135	0xc04e2e5711d7fcec	-60.362032156432036
136	0x404ca13cb29719df	57.259664844302954
137	0xc0485ed9ebe12dce	-48.74102543349328
138	0xc057f634883b301c	-95.84695630817481
139	0x402d793917575908	14.736763696110316
140	0x4037b41f58616bc2	23.703603290352255
141	0xc053b8b375d59b19	-78.88595338687846
142	0xc056d0ce8f991aed	-91.26260747863462
143	0xc06316c21b891b89	-152.711194770611
144	0xc06f872be18f8936	-252.2241065791547
145	0xc05f9c3e83c9f844	-126.44131560062038
146	0xc0614e2e781ecd8b	-138.44317251220886
147	0xc03f54379349c354	-31.328973012455506
148	0xc056748061c51f23	-89.820335810186
149	0xc05894990ef88ba8	-98.32184194824242
150	0xc05981c21d25cb82	-102.02747276965059
151	0xc059d668448a4f25	-103.35011399752382
152	0xc03f618027cdfcb2	-31.380861747541253
153	0x403d5781d590a8a5	29.341824863259394
154	0xc051b5087faa41c0	-70.82864371897358
155	0xc0559a21de75b819	-86.4083171987153
156	0xc0564b52232b6682	-89.17688826788256
157	0xc06a255adf2ba8c3	-209.16734274413292
158	0xc05bf42333d35eb7	-111.81464858666992
159	0xc043d98314e9a92a	-39.699312795726954
160	0x404c866b7a73beca	57.05015497829079
161	0xc052add132075a72	-74.7158932754335
162	0xc03b9a9ce09e5ac7	-27.603956259403983
163	0xc04952f739399126	-50.648169663533096
164	0xc045e71b0cca5948	-43.80551299934683
165	0xc033a77061088119	-19.654058518005602
166	0x40277b1ecf56f315	11.74046943603893
167	0xc035db4206746672	-21.856476214807522
168	0x3ffa9fcdff2c72dc	1.6640148132057027
169	0xc06bd628e93d26a6	-222.69249402946042
170	0xc061cad409ee7cc4	-142.33838364200176
171	0xc0669c55955bbed6	-180.8854471961883
172	0xc0567806f3ac1e4d	-89.87542430694994
173	0xc032c7ff497f1c22	-18.781239121945084
174	0xc0630f6797712a34	-152.48139545538436
175	0xc056818cac72822b	-90.02421103651493
176	0xc051a4fc0274be55	-70.577881444938
177	0xc04f789d2c6d02d0	-62.94229655573656
178	0xc0377fb8770af968	-23.49890846269537
179	0x40409153346f63f1	33.13535170973763
180	0xc038b979aef65b8f	-24.724512992044364
181	0xc036005a7c45485e	-22.00138069812271
182	0xc070bcc0c00033b6	-267.79705810622124
183	0xc059b94d5614d819	-102.89534523044166
184	0xc0618d563d15f3a8	-140.41677717483003
185	0xc0257d248b981ea7	-10.744419443435005
186	0xc0202b55e529e83e	-8.084639703145623
187	0xc067a2f7f9dc9ad2	-189.0927705105483
188	0xc05ddd442e63add0	-119.4572864507129
189	0xc057a53f7d6249e8	-94.58200010870462
190	0xc0421549a3bff1f8	-36.166309803698766
191	0xbfe52b556c7e7ee0	-0.661539756682
192	0xc02c1d7ef9eb367c	-14.05760937687159
193	0xc0458e152e0e7956	-43.11002135950791
194	0xc03a91a36e5f5ed8	-26.568900011333284
195	0xc051db75e984ccaa	-71.42907178848932
196	0xc053c48bf8b96564	-79.0710431871899
197	0xc062d669b2169c76	-150.70040230194326
198	0xc02c9c46749b2b9e	-14.305225032750794
199	0xc03047d75f21bff0	-16.28063005994767
200	0xc03d3ed61a0db5b4	-29.245454433772196
201	0xc0497c2535d12f5a	-50.96988556589231
202	0xc04900a268fe0ab6	-50.00495636371981
203	0x4016308566bdaae5	5.547383885694875
204	0xc0398a88e3833cc0	-25.54115125612293
205	0xc05087aa61e53ec4	-66.11977431666588
206	0xc0588fe5834c06cd	-98.24838335442037
207	0xc04c9981bade0e2e	-57.19927154390858
208	0xc0671cf3fcb9029f	-184.9047835935098
209	0xc037c375403062c8	-23.76350785428329
210	0xc04367d02c2edf6a	-38.81104042328555
211	0xc04633f4945792dd	-44.40590147281703
212	0x4030a9e8f5a2c76f	16.663710930100418
213	0x404bfc4710466cf6	55.97091868819
214	0xbff61d014d0ea8a0	-1.3820813188599814
215	0xc03424918d0352fc	-20.14284592944294
216	0x40214c93924702e3	8.649563380401963
217	0xc0237d88664e5074	-9.745181271610114
218	0x4031ba1aca7f15a0	17.72697129824303
219	0xc037e48feca7de9f	-23.892821112617295
220	0xc010142f3e9afd90	-4.019711473665112
221	0xc051d31421c9c18a	-71.29810375883804
222	0x4041422bde2d9f50	34.5169637415662
223	0xc04b5979416390a0	-54.699012921920485
224	0x4048801531295348	49.00064672963941
225	0xc04c6a69157c3348	-56.831331906933485
226	0xc06565b2c444dc5a	-171.17807210397115
227	0xc05033b0a50c9f2e	-64.80765653832051
228	0x40343a42b94db12e	20.227580625026512
229	0x4048c92f4126df63	49.57175459287716
230	0x402f4be0dcd255d0	15.648199940372166
231	0x404b4d33b266924f	54.6031401635015
232	0x40489207227126a8	49.14084272885276
233	0xc01171e408c56426	-4.361221444175532
234	0xc075f427fbe2d963	-351.2597617017074
235	0x40569fadc5674e42	90.49498114670226
236	0xc010e570e1e5761e	-4.22406342471143
237	0xc04ca51cf7867048	-57.28994649948487
238	0x405a84b77e10c3ea	106.07369948994861
239	0xc05ced9d24cf9019	-115.7127162959081
240	0xc04a764aa6ac0d92	-52.92415316964174
241	0x4043347df27ade62	38.410093603128885
242	0xc04ca5f13ac6898b	-57.29642424291804
243	0x4049235a2704000c	50.27618873305627
244	0x40280199a5710100	12.003125352901861
245	0xc04fa712f1c3bc17	-63.305265636991116
246	0x4037d35b4d854bf0	23.825611920397876
247	0x405bc2a8dc3678b7	111.04155640906798
248	0xc046ff1dd926c19e	-45.993098396228774
249	0xc0518cb5f6c48088	-70.19860619725853
250	0xc04989a7c9414506	-51.07543292700761
251	0xc03b86d0ed0e3f90	-27.52662545774325
252	0xc02df847f1705c63	-14.984923882451943
253	0x4039c5912a9391c3	25.771746312167817
254	0xc05221565ce4115c	-72.52089617035148
255	0xc048d0f44da47cbf	-49.63245554477316
